models/model.pt (torch, 148776 bytes, 8 tensors)

encoder.0.weight f4 [128, 13]
0	0x3d08157a	0.033223607
1	0x3e44dfba	0.1922597
2	0x3e54a075	0.20764334
3	0xbe75a860	-0.23990011
4	0x3dd9ef8f	0.10641395
5	0xbe4fa98c	-0.20279521
6	0x3e7b2667	0.24526368
7	0xbca7889c	-0.020450883
8	0x3cc025aa	0.02345546
9	0xbe2df7b2	-0.1698902
10	0xbe660615	-0.22463258
11	0x3e0afb96	0.13572535
12	0x3e17c136	0.14819798
13	0x3e5fbb79	0.21848859
14	0x3e082f49	0.13299288
15	0x3d51bd82	0.05120612
16	0xbe6b7629	-0.22994293
17	0x3e5ad14a	0.213689
18	0x3e2bb56a	0.16768423
19	0xbe1ddb3f	-0.15415667
20	0x3e7482b2	0.23877981
21	0xbc3e1fc8	-0.011604257
22	0x3e51646e	0.20448467
23	0xbdc1a1cc	-0.094546884
24	0x3e799bf5	0.24375899
25	0x3e874b15	0.2642447
26	0x3e591e5b	0.21202986
27	0xbdba5e3b	-0.09100004
28	0xba9010ae	-0.0010991299
29	0x3cc8227d	0.024430508
30	0xbe294a8f	-0.16532348
31	0xbe015080	-0.12628365
32	0xbe50ee56	-0.20403418
33	0xbd804fac	-0.06265196
34	0x3e5d3b36	0.21604618
35	0xbe3502e8	-0.1767689
36	0xbd679287	-0.056536224
37	0x3e3493c2	0.1763449
38	0x3b8a41d6	0.004219274
39	0x3db673d9	0.08908815
40	0xbe03df59	-0.12878169
41	0x3e0d6ac0	0.13810253
42	0xbe0783c6	-0.13233861
43	0x3e448406	0.19190988
44	0x3e818ec5	0.25304237
45	0xbe28c982	-0.16483119
46	0x3dfe9b89	0.1243201
47	0xbe067b47	-0.13132964
48	0xbdf2a90b	-0.11848649
49	0x3889584f	6.549118e-05
50	0x3e80afb2	0.25134045
51	0x3e95ffc2	0.2929669
52	0xbbb18fdd	-0.005418761
53	0x3deabdae	0.1146196
54	0xbcad7f5f	-0.0211789
55	0xbe572549	-0.21010317
56	0xbe2924f5	-0.16518004
57	0xbe706cc9	-0.23478998
58	0xbe637790	-0.22213578
59	0x3e56ae1f	0.2096486
60	0xbe30feea	-0.17284742
61	0xbcea85b1	-0.028628202
62	0x3e88d317	0.2672355
63	0xbc0a3963	-0.008436534
64	0xbe3f26f1	-0.18667199
65	0x3d71cd96	0.059033953
66	0x3e8181c5	0.2529432
67	0x3e056b61	0.13029243
68	0x3d49e57f	0.04929113
69	0x3e83af55	0.25719705
70	0xbd170cfd	-0.03687762
71	0xbe6d868a	-0.23195854
72	0x3e5b68ec	0.21426743
73	0xbe671424	-0.22566277
74	0xbe6710a9	-0.22564949
75	0xbe060b4e	-0.1309025
76	0x3c2e265c	0.010629263
77	0x3b400f0b	0.0029305841
78	0xbe320754	-0.17385608
79	0xbc7bc09d	-0.015365747
80	0xbdc7f090	-0.097626805
81	0x3b80f298	0.0039351694
82	0x3e235928	0.15951979
83	0x3e2ba08e	0.16760466
84	0xbc4ce4e4	-0.012505744
85	0xbda85c46	-0.08220725
86	0x3e4c0c9c	0.19926685
87	0x3c2334e8	0.009961344
88	0x3e683fbe	0.22680566
89	0xbdd75aba	-0.105153516
90	0xbe818e34	-0.25303805
91	0x3e5fdb45	0.21860988
92	0xbe13bdc6	-0.14427862
93	0x3da1998e	0.07890616
94	0x3e81e3a8	0.25369
95	0x3cda2a8f	0.026631622
96	0xbe2d37c0	-0.16915798
97	0x3e8402ea	0.25783473
98	0xbdccb80c	-0.09996042
99	0xbe7e5e7f	-0.24840735
100	0x3d5c201e	0.053741567
101	0x3e3b89a5	0.18314226
102	0xbd874d91	-0.066065915
103	0x3e4cba88	0.19993031
104	0xbcb1828e	-0.021668699
105	0x3e3ad217	0.18244205
106	0x3e806b58	0.25081897
107	0xbdb82ddc	-0.08993122
108	0xbe271a8b	-0.16318719
109	0xbdd4dfa1	-0.10394216
110	0x3e9b0879	0.30279902
111	0xbd15b16e	-0.036546163
112	0x3ea37e15	0.3193213
113	0x3e9080e5	0.2822334
114	0x3d338015	0.04382332
115	0x3ea8bc76	0.32956284
116	0x3eb15567	0.3463547
117	0x3e105847	0.14096175
118	0x3e56d7f4	0.20980817
119	0x3e25cde6	0.16191825
120	0xbdc794f8	-0.097452104
121	0x3e47b9d6	0.19504485
122	0xbe28bb38	-0.16477668
123	0x3e0036b2	0.12520865
124	0x3e400823	0.18753104
125	0x3d9ec4e2	0.07752396
126	0x3e8d6680	0.27617264
127	0xbe23f79b	-0.16012423
128	0xbe00311b	-0.12518732
129	0xbe3ac765	-0.18240125
130	0x3e94ea5c	0.29085052
131	0x3e09e829	0.13467468
132	0x3e607e1d	0.21923108
133	0x3e8a885f	0.27057168
134	0xbd2ec361	-0.042666797
135	0x3e8e792f	0.2782683
136	0xbe3f154a	-0.18660465
137	0xbdbaf349	-0.09128434
138	0x3e05eebe	0.13079354
139	0xbe3a7c9e	-0.182116
140	0x3da2a9fc	0.07942578
141	0x3e751e58	0.23937356
142	0x3dd46ee5	0.10372714
143	0x3de4cec6	0.111722514
144	0xbd9f2bc3	-0.07772019
145	0x3c0a113d	0.0084269615
146	0xbe6145c0	-0.21999264
147	0xbe6abf12	-0.2292445
148	0xbe69e280	-0.22840309
149	0x3e4107a2	0.18850568
150	0xbe3ecffc	-0.18634027
151	0x3e2df1ac	0.16986722
152	0xbd5a72fe	-0.05333232
153	0xbd69fddb	-0.05712686
154	0xbd99e728	-0.07514793
155	0x3e8b3ddd	0.27195635
156	0x3e02ce2a	0.12773958
157	0x3e2ab1a0	0.16669321
158	0xbe28844b	-0.16456716
159	0x3d0dec90	0.03464943
160	0x3e4c7443	0.19966225
161	0x3dc46407	0.09589391
162	0x3e97db99	0.29659727
163	0x3cf9001f	0.030395566
164	0x3df82cd7	0.121179275
165	0x3e015439	0.12629785
166	0x3e87cc58	0.2652309
167	0x3e959e72	0.29222447
168	0xbd6246ba	-0.05524323
169	0xbe313b3f	-0.17307757
170	0xbd547403	-0.05186845
171	0xbe29e4a8	-0.16591132
172	0x3e50bb08	0.20383847
173	0x3e8623e5	0.2619926
174	0xbe3e5b9d	-0.18589635
175	0x3d4363b0	0.04770249
176	0x3d73e380	0.059543133
177	0xbd4f1a80	-0.05056238
178	0xbde4bcd6	-0.1116883
179	0xbe18a05d	-0.14904924
180	0x3dc60bb8	0.09670204
181	0x3e7f9d06	0.24962243
182	0x3e465bb2	0.19370916
183	0x3e0998d3	0.13437204
184	0x3d68212c	0.05667226
185	0x3e8926fd	0.26787558
186	0xbe822d89	-0.25425366
187	0x3e567fe8	0.2094723
188	0x3e1f720f	0.15570854
189	0x3e8dd17c	0.27698886
190	0x3d9d3d9f	0.07677769
191	0x3c0dea4a	0.008661816
192	0xbe079804	-0.13241583
193	0x3e77018b	0.24121682
194	0x3df7f062	0.12106396
195	0x3dd1ba4b	0.10240611
196	0x3e1daab4	0.1539715
197	0x3d86809e	0.065675005
198	0x3e24e1ed	0.16101809
199	0x3e10cbd7	0.14140259
200	0x3d5fc540	0.05463147
201	0xbe2d4b0c	-0.1692316
202	0x3e1099f1	0.14121224
203	0xbdd547db	-0.10414096
204	0xbcf333bd	-0.029687757
205	0x35184170	5.6719637e-07
206	0xbe3e0aab	-0.18558757
207	0xbde866ce	-0.113477334
208	0xbe6c5764	-0.23080212
209	0xbce072a4	-0.027398415
210	0xbdda6d57	-0.10665386
211	0xbd4e419a	-0.05035553
212	0x3e00affa	0.1256713
213	0x3e09985c	0.13437027
214	0x3d41ea9e	0.04734289
215	0x3df65f30	0.12029874
216	0xbda297ea	-0.079391316
217	0xbe7f74d4	-0.2494691
218	0xbe6830aa	-0.22674814
219	0x3e459824	0.19296318
220	0x3e2a2c78	0.16618526
221	0x3e73390d	0.23752232
222	0x3e22c188	0.15894139
223	0xbe6c86ff	-0.23098372
224	0x3c4eae8d	0.012614858
225	0x3db74961	0.08949543
226	0x3e834816	0.25640935
227	0x3dfd07c1	0.123549946
228	0xbe426097	-0.18982159
229	0x3e1e893d	0.1548204
230	0xbdf3d71e	-0.11906265
231	0xbcbb7e23	-0.022887295
232	0xbdd92420	-0.106025934
233	0xbd7c1d48	-0.061551362
234	0x3e5dbf5c	0.21655029
235	0x3d774953	0.06037266
236	0xbd08645f	-0.033298846
237	0x3e07c4b2	0.13258627
238	0xbbb3bbd8	-0.005485039
239	0x3d7c0412	0.06152732
240	0xbe1f1f4b	-0.15539281
241	0x3da60b2e	0.08107601
242	0x3e934ab9	0.28767946
243	0xbe0ba0b4	-0.13635522
244	0x3e24db07	0.16099177
245	0x3d870bbb	0.06594034
246	0xbdfca0c9	-0.12335355
247	0x3dcc668a	0.09980495
248	0xbe415a92	-0.18882206
249	0xbd1c5d3e	-0.03817486
250	0x3e2cc8e5	0.1687351
251	0xbd8b4afe	-0.06801413
252	0xbdd27173	-0.10275545
253	0x3e4d53f7	0.20051561
254	0xbdaa0a1f	-0.08302712
255	0xbe69a3c7	-0.22816382

encoder.0.bias f4 [128]
0	0x3e43b1c3	0.1911078
1	0xbd020c56	-0.031750046
2	0x3cae5125	0.021278927
3	0xbdf41edc	-0.119199485
4	0xbdcfe9bb	-0.101520024
5	0x3cb35cf6	0.021894913
6	0xbe371fc1	-0.17883207
7	0xba1a0f6c	-0.0005876932
8	0xbe20196d	-0.15634699
9	0x3e806688	0.25078225
10	0x3e96875b	0.29400143
11	0xbc98a799	-0.018634604
12	0x3e7c4564	0.24635845
13	0x3dd6c51c	0.104868144
14	0x3dc7306d	0.09726033
15	0x3dfd7dea	0.12377532
16	0xbd2137e4	-0.039359942
17	0xbe541b9a	-0.20713654
18	0xbc5d9206	-0.013523584
19	0x3e28690f	0.16446327
20	0x3e371a9a	0.17881241
21	0xbe15353b	-0.14571087
22	0x3d5d79dc	0.054071292
23	0x3e75fefa	0.24023047
24	0x3df20e47	0.118191294
25	0x3e2d3e34	0.1691826
26	0x3e0e1aca	0.13877407
27	0x3c287edb	0.010284151
28	0xbe7a61f1	-0.24451424
29	0x3cf103c9	0.02942075
30	0xbe184598	-0.14870298
31	0xbe219d07	-0.15782557
32	0x3c3fb2fe	0.01170039
33	0xbe464370	-0.19361663
34	0x3e828345	0.25490776
35	0xbe09c6a0	-0.13454676
36	0x3d9ca668	0.07648927
37	0x3e0c02cc	0.13672942
38	0xbb1f0cba	-0.002426906
39	0x3d6bd330	0.05757445
40	0xbc0fe20e	-0.008781923
41	0x3e5b942e	0.21443245
42	0xbe79c10a	-0.24390045
43	0xbda44c79	-0.080223985
44	0xbdf9df1a	-0.12200756
45	0x3e4a8695	0.19777901
46	0xbc820d1a	-0.015875388
47	0xbddbd220	-0.107334375
48	0x3d073cf8	0.03301713
49	0x3e25d581	0.16194727
50	0xbe5a7ebb	-0.21337406
51	0x3dccf321	0.10007311
52	0xbd89c184	-0.06726363
53	0xbda540d7	-0.08069008
54	0x3e8fa564	0.2805587
55	0xbe866eca	-0.262564
56	0xbe37676f	-0.1791055
57	0xbc3ba335	-0.011452486
58	0xbe75c4ea	-0.24000898
59	0xbcb43ae5	-0.02200074
60	0xbd7afb3c	-0.061274752
61	0xbe4ec168	-0.20190966
62	0xbe65366a	-0.22384039
63	0x3db9a124	0.09063938
64	0x3cd061e5	0.025437305
65	0x3d9d355b	0.076761924
66	0x3d2fa7dc	0.042884693
67	0xbe0a2211	-0.13489558
68	0xbda49836	-0.080368444
69	0x3e376a63	0.17911677
70	0xbe3391ec	-0.17536134
71	0xbdae852b	-0.085214935
72	0xbe36f634	-0.17867357
73	0x3e921580	0.28532028
74	0x3e56d95a	0.2098135
75	0x3e3ede7d	0.1863956
76	0xbd29848d	-0.041386176
77	0x3e88a5f5	0.26689115
78	0x3e6c0415	0.23048432
79	0xbdff92c2	-0.12479164
80	0xbd4606b6	-0.048346244
81	0x3e420c13	0.18949918
82	0x3e03c4a4	0.12867981
83	0x3e6e71df	0.23285626
84	0x3e8b20a5	0.27173343
85	0x3e8081ba	0.25098974
86	0x3d12cefc	0.035841927
87	0x3da6de74	0.08147898
88	0x3d88fd41	0.06688929
89	0x3e166dc4	0.1469031
90	0x3cbd5065	0.023109624
91	0x3e99b7c5	0.30023018
92	0x3d4f8e80	0.050673008
93	0x3b5731d9	0.0032836108
94	0xbe75c60f	-0.24001335
95	0x3df6bdaa	0.12047894
96	0xbe8cfab7	-0.2753503
97	0x3e24b776	0.1608561
98	0x3dbccf70	0.09219253
99	0x3db197d4	0.08671537
100	0x3e5cb7f2	0.21554545
101	0x3e4ade69	0.19811405
102	0x3e73cc71	0.23808457
103	0xbe5feaa9	-0.2186686
104	0x3debe73a	0.11518712
105	0xbbc2869f	-0.0059364582
106	0xbe2ec92f	-0.17068933
107	0x3ca7ec9c	0.020498566
108	0x3ddddebd	0.108334996
109	0xbe33b9d4	-0.17551357
110	0xbcdc4fb6	-0.026893478
111	0xbe0d90a7	-0.13824712
112	0x3d63cb6e	0.055613928
113	0xbe56442b	-0.20924442
114	0x3e39cbcc	0.18144149
115	0x3e3e5936	0.18588719
116	0xbdcd9d66	-0.10039787
117	0xbdc9cd54	-0.09853616
118	0xbe554fc7	-0.20831214
119	0xbddb3fb0	-0.10705507
120	0xbe6e9420	-0.23298693
121	0xbdf255fc	-0.118328065
122	0x3d863278	0.06552595
123	0x3ea7909a	0.3272751
124	0x3e2c55d5	0.16829617
125	0xbe4d9c2a	-0.20079103
126	0x3d7ca273	0.06167836
127	0xbe81d926	-0.25360984

encoder.2.weight f4 [128, 128]
0	0x3d09605a	0.033539154
1	0x3d9f5592	0.07779993
2	0x3dd38f6d	0.10330091
3	0x3c00704a	0.007839272
4	0xbd839f97	-0.06426924
5	0xbd72c43e	-0.059269182
6	0xbd983f85	-0.074339904
7	0x3dec46de	0.11536954
8	0xbddfbb93	-0.10924449
9	0x3daaff57	0.083494835
10	0x3d7df921	0.062005166
11	0xbce3dfd3	-0.027816689
12	0xbd1145fc	-0.035467133
13	0xbc2ecbb8	-0.0106686875
14	0x3cbc5fbc	0.022994868
15	0xbd1975ea	-0.037465967
16	0xbd283644	-0.041067377
17	0x3d71ba52	0.05901558
18	0xbc2b5eb4	-0.010459591
19	0x3dbce853	0.09224
20	0xbd08a094	-0.033356264
21	0xbd87828d	-0.066166975
22	0x3d3fb336	0.04680177
23	0x3db0b2e5	0.086278714
24	0xbd15aaca	-0.03653983
25	0xbd9a3059	-0.07528753
26	0xbd105d32	-0.035245128
27	0xbd34aa24	-0.04410757
28	0xbaee9558	-0.0018202467
29	0xbe0b2d27	-0.13591443
30	0x3daf663f	0.08564424
31	0xbcc2dd39	-0.023787128
32	0x3d8bed29	0.06832344
33	0x3dab0fa8	0.083525956
34	0x3de170ef	0.110078685
35	0x3d87320b	0.06601342
36	0x3d3200f2	0.043457933
37	0x3d2f0b32	0.042735286
38	0x3d2f201b	0.042755228
39	0x3d8db857	0.06919926
40	0xbd780c00	-0.06055832
41	0x3ad5f504	0.0016323631
42	0x3cf74805	0.030185709
43	0x3cd66504	0.026171215
44	0x3d8cd02a	0.06875642
45	0xbe126001	-0.14294435
46	0x3dabfc5c	0.08397743
47	0xbca655ba	-0.02030455
48	0x3a681578	0.0008853297
49	0x3d5bbc5d	0.053646434
50	0xbc8fc64d	-0.017550612
51	0x3d21d93e	0.03951382
52	0xbd806933	-0.06270065
53	0xbbf3ec34	-0.007443929
54	0x3d495a49	0.04915837
55	0xbd89dfd6	-0.067321464
56	0x3cf0f787	0.029414905
57	0x39cdd7e2	0.00039261492
58	0x3d96bd6b	0.07360347
59	0x3d9d2e89	0.076748915
60	0xbd635968	-0.055505186
61	0xbc266f90	-0.0101584345
62	0x3dea991d	0.11454985
63	0x3d27a407	0.040927913
64	0xbca8ed6b	-0.020621022
65	0x3c934649	0.01797785
66	0xbd6e11b9	-0.05812237
67	0x3dcefd08	0.10106856
68	0xbd618a92	-0.05506379
69	0x3d48192d	0.048852134
70	0x3dd85da7	0.10564738
71	0x3dede581	0.1161604
72	0xbc95d8c9	-0.018291848
73	0x3d802bda	0.06258364
74	0x3cdb0fbf	0.026740907
75	0x3d13d452	0.036091156
76	0x3cd5461f	0.026034413
77	0x3beef428	0.0072922893
78	0x3d76310f	0.06010538
79	0x3cb3f4cf	0.02196732
80	0xbc46ece1	-0.012141437
81	0x3da425df	0.08015036
82	0x3d8fdae8	0.07024175
83	0xbdfdcc34	-0.12392464
84	0x3d964d97	0.07339018
85	0xbd602d95	-0.05473097
86	0x3d95d1f4	0.07315436
87	0xbcc61a32	-0.024182413
88	0x3c03eafb	0.008051629
89	0x3da36123	0.07977512
90	0xbbfe7d3b	-0.0077663935
91	0x3d95dcea	0.07317527
92	0xbcba115f	-0.022713361
93	0xbcc17d2e	-0.02361926
94	0xbb291768	-0.0025801305
95	0x3ce74ab1	0.028233858
96	0xbd3c193b	-0.0459225
97	0xbdafd4ad	-0.085854866
98	0xbd72662a	-0.059179462
99	0xbc66fa08	-0.014097698
100	0xbd2c3933	-0.042046737
101	0xbcef40dc	-0.029205732
102	0x3cf0dded	0.029402697
103	0xbcbffd0d	-0.023436094
104	0xbd274779	-0.040839646
105	0xbdc6e9a6	-0.09712534
106	0x3dc36496	0.095406696
107	0xbda97e9d	-0.08276103
108	0x3d442358	0.04788527
109	0xbc8a2a89	-0.016865985
110	0x3d8a925d	0.06766198
111	0xbddb2b83	-0.107016586
112	0xbd93cee8	-0.072171986
113	0xbb3ea775	-0.0029091511
114	0xbcc01553	-0.023447668
115	0x3cfc10ed	0.03076979
116	0xbd12a044	-0.035797372
117	0x3dd1ea6e	0.10249792
118	0x3cd5fb41	0.026120784
119	0x3d1fbbff	0.038997646
120	0xbce725b1	-0.028216215
121	0xbd818102	-0.063234344
122	0x3d627282	0.055284984
123	0x3c7512db	0.014958109
124	0x3d448830	0.04798144
125	0xbba92da8	-0.0051629134
126	0x3b424677	0.002964405
127	0x3d14a02a	0.036285557
128	0xbd7a5aea	-0.06112186
129	0x3cfe55ab	0.031046709
130	0xbc3df263	-0.011593434
131	0xbc8ad16f	-0.016945569
132	0xbd8b108f	-0.06790268
133	0xbd9c3857	-0.076279335
134	0xbd36906e	-0.044571333
135	0x3ce06824	0.027393408
136	0x3d6f99c0	0.058496237
137	0xbd20485c	-0.039131507
138	0xbd48890f	-0.048958834
139	0x3cd031d8	0.025414392
140	0xbc6c9611	-0.0144400755
141	0x3d383e62	0.044981368
142	0x3c0ca82d	0.008585018
143	0xbcaaf77a	-0.02086996
144	0xbd6ca114	-0.057770804
145	0xbd931d01	-0.071832664
146	0xbbf6eb40	-0.007535368
147	0x3d09331b	0.033496004
148	0x3ca81ea9	0.020522432
149	0x3da627fd	0.08113096
150	0xbdb2d0ae	-0.08731209
151	0x3d5c157e	0.053731434
152	0x3d7b8898	0.061409563
153	0x3cfd9740	0.03095591
154	0xbcf2aa9f	-0.029622374
155	0x3d29e256	0.041475616
156	0x3d2be6ae	0.04196804
157	0xbd5039a3	-0.050836217
158	0x3cec236c	0.028825484
159	0xbd7bffaf	-0.061523136
160	0x3b8ebc60	0.004355952
161	0x3d1c8eaa	0.038221993
162	0x3d1ecb36	0.038768016
163	0x3cdc6dbc	0.026907794
164	0x3d0016aa	0.031271614
165	0xbc71bd08	-0.014754541
166	0x3d328da6	0.043592118
167	0xbd5766a8	-0.052588135
168	0xbd868f4c	-0.065703005
169	0xbda6781f	-0.0812838
170	0x3cd89834	0.026439764
171	0xbd913243	-0.07089665
172	0xbcb1b360	-0.021691978
173	0xbc462ee8	-0.012096144
174	0x3a9a5da7	0.0011777178
175	0xba8fba1c	-0.0010965499
176	0xbcc4f00c	-0.024040245
177	0x3c83e5db	0.016100815
178	0xbd9a9e6d	-0.075497486
179	0x3d9c225d	0.07623742
180	0xbd4633b6	-0.04838916
181	0xbd6a0020	-0.057129025
182	0xbd969bbe	-0.07353924
183	0x3d953739	0.072859235
184	0x3da30111	0.07959188
185	0x3d8bc8c5	0.06825403
186	0x3d2bfe66	0.04199066
187	0xbd84c6f9	-0.064832635
188	0x3c213a48	0.0098405555
189	0x3d0c408c	0.034241244
190	0xbcba10c7	-0.022713078
191	0xbd9de188	-0.07709032
192	0x3d2664c3	0.040623438
193	0xbb3cf480	-0.0028832257
194	0x3da8887f	0.082291596
195	0xbd37b91d	-0.044854272
196	0x3c43c00e	0.011947645
197	0xbd539cbe	-0.051663153
198	0x3da19a3b	0.07890745
199	0x3d4dec82	0.05027438
200	0xbaa3bad0	-0.0012491588
201	0x3d67c1b1	0.056581203
202	0xbd2a7bd2	-0.04162199
203	0x3b904065	0.0044022077
204	0xbd5774f1	-0.05260176
205	0xbcd7a826	-0.026325297
206	0xbd813124	-0.06308201
207	0xbce023aa	-0.027360756
208	0xbc8c71b3	-0.01714406
209	0xbdb7f4a1	-0.08982206
210	0xbc93bba0	-0.018033803
211	0x3c9002fc	0.017579548
212	0x3cfb5a8c	0.030682825
213	0x3bb2ec92	0.0054603303
214	0xbd7e3d82	-0.062070377
215	0xbdb0c9b2	-0.0863222
216	0x3d944798	0.07240218
217	0x3d2abafe	0.041682236
218	0x3bfa0af0	0.0076306984
219	0x3c8ee29c	0.01744204
220	0x3d6f2490	0.058384478
221	0xbd9a859e	-0.07545017
222	0x3d6be6ba	0.057593085
223	0x3d845175	0.06460849
224	0xbd471f3d	-0.048613776
225	0xbd897b7e	-0.067130074
226	0xbd7eb76c	-0.062186643
227	0x396a61b0	0.0002235237
228	0x3bb71000	0.005586624
229	0xbd2f9161	-0.042863254
230	0x3bf7dcf3	0.007564181
231	0x3d8c0433	0.068367384
232	0xbd813a1e	-0.06309913
233	0x3d9668ad	0.07344184
234	0x3c8f2d02	0.017477516
235	0xbae9b642	-0.0017830806
236	0x3b0b1f6d	0.0021228448
237	0x3d022d44	0.03178145
238	0x3d830cb7	0.063989095
239	0xbdaea058	-0.08526677
240	0x3c8a7c0c	0.016904853
241	0xbaa0b64e	-0.0012261362
242	0x3d7068a6	0.05869355
243	0xbd950692	-0.07276644
244	0xbd85d014	-0.065338284
245	0x3c9e5f2a	0.019332487
246	0xbd726be6	-0.05918493
247	0xbcffe08c	-0.031235002
248	0x3ceb9021	0.02875525
249	0x3d8ff262	0.07028653
250	0xbdaf78b8	-0.08567947
251	0xbcef1b08	-0.029187694
252	0xb799f4ed	-1.8353074e-05
253	0x3d7f88ea	0.06238643
254	0x3a4f175c	0.0007899904
255	0xbd032e70	-0.032026708

encoder.2.bias f4 [128]
0	0xbd2c0fa8	-0.04200712
1	0x3d03b63a	0.032156207
2	0xbd9f821f	-0.077884905
3	0xbd373076	-0.04472395
4	0xbd1865dd	-0.03720652
5	0xbcdbcc58	-0.026830837
6	0xbbff5c90	-0.0077930167
7	0xbdb3a83b	-0.08772322
8	0x3d006450	0.031345665
9	0x3db85665	0.090008534
10	0x3c167138	0.009182267
11	0xbd19002d	-0.037353683
12	0x3cb46623	0.022021359
13	0xbd4f200b	-0.050567668
14	0xbda0b69b	-0.07847329
15	0xbd793e59	-0.060850475
16	0x3d14cce0	0.036328197
17	0x3bfbb9c8	0.007682059
18	0x3d47aa4e	0.0487464
19	0xbd01ee17	-0.0317212
20	0x3dc4031f	0.09570908
21	0x3da6b96d	0.08140836
22	0x3da99f82	0.08282377
23	0x3caec64c	0.02133479
24	0x3dcaa527	0.098947816
25	0x3d42185c	0.047386512
26	0x3c696b58	0.014246784
27	0x3d600e71	0.054701272
28	0x3d20a0fc	0.039216027
29	0x3cfe30f4	0.031029202
30	0x3d32d6a9	0.043661747
31	0x3d4074c8	0.04698637
32	0xbdaf8b0d	-0.08571444
33	0xbcd867f9	-0.026416766
34	0xbcc7d3b8	-0.024392948
35	0x3d93fa70	0.072255015
36	0x3c200730	0.009767339
37	0xbd7621d4	-0.060090855
38	0x3da9805d	0.082764365
39	0x3c7d2130	0.015449807
40	0xba766570	-0.00093992706
41	0x3df68beb	0.12038406
42	0xbd514f61	-0.051101092
43	0x3c25fd68	0.010131218
44	0x3c87bf6b	0.016570767
45	0xbc20920f	-0.009800448
46	0x3ca5c70c	0.020236515
47	0x3bf092e8	0.0073417313
48	0x3c580ebf	0.0131871095
49	0x3cad0ec0	0.021125197
50	0xbd68902b	-0.056778114
51	0xbd9e92f0	-0.0774287
52	0x3de2ed9b	0.11080476
53	0x3c83db0c	0.01609566
54	0x3d4b767a	0.049673535
55	0x3c3e2eb0	0.011607811
56	0xbd484eb5	-0.048903186
57	0xbc43eb2f	-0.011957928
58	0x3d9ba5f7	0.07600015
59	0xbd9b0a05	-0.075702704
60	0x3d82d223	0.06387737
61	0xbc7684d2	-0.015046315
62	0xbd2c61ef	-0.042085584
63	0xbd1b6cb9	-0.037945483
64	0xbcdb3be7	-0.026761962
65	0x3c82ab0c	0.015950702
66	0xbcb123c4	-0.0216235
67	0xbcaeec9c	-0.021353059
68	0xbce0aaea	-0.027425248
69	0x3cf0e1d1	0.029404553
70	0xbb0698c9	-0.0020537844
71	0xbc2392a8	-0.009983696
72	0x3d955914	0.07292381
73	0xbcf881d0	-0.030335337
74	0x3d9b886d	0.075943805
75	0x3d94f4b7	0.07273238
76	0xbd5128eb	-0.051064413
77	0xbd302bdc	-0.043010578
78	0xbaca199f	-0.0015419013
79	0x3d9aef6b	0.075651966
80	0x3d704862	0.05866278
81	0xbd1dbf58	-0.038512558
82	0xbdb111da	-0.08645983
83	0x3c3ed420	0.011647254
84	0x3c055253	0.008137303
85	0x3dae1d17	0.08501642
86	0x3d78599e	0.06063234
87	0x3dd9bb50	0.1063143
88	0xbd32e1eb	-0.043672483
89	0xbd69fb17	-0.057124224
90	0x3d59a34c	0.053134248
91	0x3d354d97	0.04426345
92	0xbd0ea313	-0.03482349
93	0x3cbd239d	0.02308827
94	0x3c7206d5	0.014772137
95	0xbd446d8d	-0.04795604
96	0x3c225168	0.009907104
97	0xbd611ef2	-0.054961152
98	0xbd9c90f2	-0.076448336
99	0x3d99ffbf	0.07519483
100	0x3db24ad4	0.087056786
101	0x3cde46e4	0.027133413
102	0x3de70801	0.112808235
103	0x3d8eefbd	0.0697932
104	0xbcc364b0	-0.023851722
105	0xbc841bd6	-0.016126554
106	0xbbe97281	-0.0071242456
107	0xbdc120c2	-0.09430076
108	0x3ca4c704	0.02011443
109	0xbd010910	-0.031502783
110	0xbd01642f	-0.031589683
111	0xbcc838e5	-0.024441192
112	0xbd41f5dc	-0.04735361
113	0x3d3e2be6	0.046428584
114	0x3cf5abae	0.02998909
115	0xb97d5a72	-0.00024161654
116	0xbb27b1e7	-0.0025588216
117	0x3d1e630b	0.038668673
118	0x3dcc6bb3	0.099814795
119	0xbc0ee4dc	-0.0087215565
120	0xbce598a7	-0.028026892
121	0x3a22c7e8	0.0006209598
122	0xbceb854c	-0.028750084
123	0xbd68198b	-0.056664985
124	0x3cab9b58	0.020948097
125	0x3d4c9073	0.049942445
126	0xbc759fda	-0.014991725
127	0x3d9041c1	0.070437916

decoder.0.weight f4 [128, 128]
0	0x3dbf5f24	0.093443185
1	0x3d85f2b3	0.06540432
2	0x3cceef61	0.02526063
3	0x3d8599fd	0.065235116
4	0x3dacc367	0.084357075
5	0x3b616421	0.0034391957
6	0xbc1ae77f	-0.009454607
7	0xbceb2175	-0.028702477
8	0x3d347f62	0.044066794
9	0x3e25c598	0.16188657
10	0x3d88b055	0.06674258
11	0x3d3d5afa	0.04622934
12	0xbd68463e	-0.056707613
13	0x3c9a33da	0.018823553
14	0xbcaf4bf2	-0.021398518
15	0x3c856e63	0.016287988
16	0xbdab1f86	-0.08355622
17	0xbd2dac77	-0.042400803
18	0x3e09a8e9	0.1344334
19	0x3d336fdc	0.04380785
20	0x3c2661da	0.010155166
21	0xbd82e7b7	-0.06391852
22	0x3d886e66	0.06661682
23	0x3d2c5db1	0.04208154
24	0x3ca83e23	0.020537442
25	0x3dbd874b	0.09254321
26	0xbda04116	-0.07824914
27	0x3d3f29cf	0.04667073
28	0x3cb223e5	0.021745631
29	0x3cbc034a	0.022950787
30	0xbd217acc	-0.03942375
31	0xbd38cffd	-0.045120228
32	0x3c1e149b	0.009648467
33	0xbcca133c	-0.024667375
34	0xbd9cb779	-0.07652182
35	0xbc367cf3	-0.011138189
36	0xbcea8375	-0.028627137
37	0x3db55061	0.08853222
38	0xbcc2d8dc	-0.023785047
39	0xbda4432b	-0.08020624
40	0xbbe04fcc	-0.00684545
41	0x3dcb553b	0.09928366
42	0xbd0813fb	-0.03322218
43	0x3c8ab982	0.01693416
44	0xbaada5d9	-0.0013248279
45	0x3dc7a582	0.09748365
46	0x3d5ada1a	0.053430654
47	0x3d797ec2	0.0609119
48	0xbb5c237e	-0.003359049
49	0x3d115ddc	0.035489902
50	0x3db0303f	0.08602952
51	0xbd783e8a	-0.060606517
52	0x3d962e49	0.07333047
53	0xbc05daa7	-0.008169807
54	0xbd601c25	-0.05471434
55	0xbd284795	-0.04108389
56	0x3cea9ec3	0.028640157
57	0x3c023899	0.007948064
58	0xbd950800	-0.072769165
59	0x3cd43df3	0.025908446
60	0xbc2d8de9	-0.010592916
61	0x3dd2a82c	0.102859825
62	0x3da0c226	0.07849531
63	0x3c045656	0.008077225
64	0x3ce8f1fd	0.028435702
65	0xbca03020	-0.019554198
66	0x3cc7f9a1	0.024411025
67	0xbb33b76f	-0.0027422567
68	0x3d1e2a88	0.03861478
69	0x3dacc6b1	0.08436335
70	0xbc99a40e	-0.018754985
71	0xbd6d4bd9	-0.057933662
72	0x3df80cd8	0.12111825
73	0x3d5625d0	0.052282155
74	0xbd28a81b	-0.041175943
75	0xbd23abc0	-0.039958715
76	0x3d74b7d4	0.059745625
77	0xbd81f1ae	-0.06344925
78	0xbd35ff80	-0.044433117
79	0x3dc05576	0.093913004
80	0x3cecf40c	0.028924964
81	0xbb363050	-0.0027799793
82	0x3c8f9d5f	0.017531095
83	0x3cbe864a	0.023257393
84	0x3ca34823	0.019931858
85	0xb8e8e9c2	-0.00011106163
86	0x3b230b65	0.0024878618
87	0x3dd989e1	0.106220014
88	0x3cd3622f	0.025803654
89	0xbccd96d5	-0.025096336
90	0xbd2966c0	-0.041357756
91	0xbce93a19	-0.028470086
92	0xbd81bd8e	-0.06334983
93	0x3d4ae16b	0.04953138
94	0x3d89a77e	0.067214
95	0x3c75c3ef	0.0150003275
96	0x3c039d44	0.0080331005
97	0x3ca8e6e1	0.020617904
98	0xbd67a1d7	-0.056550827
99	0x3d9b9b19	0.07597942
100	0xbbd1fd68	-0.006408382
101	0xbdc3302c	-0.095306724
102	0x3ddc2363	0.10748937
103	0x3c881aa3	0.016614264
104	0x3da2083d	0.079117276
105	0x3d96480a	0.07337959
106	0xbba4fe9c	-0.0050352346
107	0x3c9a175a	0.018809963
108	0x3cfe17af	0.031017153
109	0xbd6892fe	-0.056780808
110	0x3dd44f1b	0.10366651
111	0x3daa989f	0.083298914
112	0x3d3151ce	0.043290906
113	0xbcf2bd4c	-0.02963128
114	0xbd0e0ab6	-0.034678183
115	0xbd8c43ce	-0.0684887
116	0xbc83014c	-0.01599183
117	0xbca460ac	-0.020065628
118	0xbd4921da	-0.04910455
119	0xbd0a5a36	-0.033777438
120	0x3d8c8e97	0.06863134
121	0x3d19f2f9	0.037585232
122	0x3d92035a	0.071295455
123	0xbd9a1c73	-0.075249575
124	0xbd0a0455	-0.033695538
125	0xbb7aa2b7	-0.0038243958
126	0xbc764fb9	-0.015033656
127	0xbd8252d1	-0.06363452
128	0x3d68b3ee	0.05681222
129	0xb9ff1fec	-0.00048661174
130	0xbda753c9	-0.081702776
131	0xbc18ad48	-0.009318657
132	0xbcb4bb3c	-0.022061937
133	0x3cc08c4f	0.023504404
134	0x3dae1721	0.08500505
135	0x3dae398f	0.08507072
136	0xbd0edef8	-0.03488061
137	0xbb2b83b8	-0.002617104
138	0x3d837471	0.06418694
139	0x3dad9ffb	0.084777795
140	0x3db190cd	0.08670197
141	0xbd0d15be	-0.034444563
142	0x3d02de0e	0.03195005
143	0x3c1cf428	0.009579696
144	0x3d85ffb3	0.065429114
145	0xbd7bb0d7	-0.061447944
146	0xbd6e6bfa	-0.058208443
147	0xbda504a9	-0.080575295
148	0xbc726018	-0.014793418
149	0xbc7fcab8	-0.015612297
150	0xbd859a5b	-0.065235816
151	0xbd278d5c	-0.040906295
152	0x3c544398	0.012955569
153	0x3cbd9c56	0.023145836
154	0x3c2b1c79	0.0104438
155	0x3d8e1759	0.06938047
156	0x3d701e36	0.05862256
157	0xbc8adfe4	-0.016952462
158	0x3cc97c8c	0.024595521
159	0x3cb11750	0.021617562
160	0x3d1578a8	0.03649202
161	0x3da958f5	0.0826892
162	0x3ce99840	0.028514981
163	0xbda77a1d	-0.08177588
164	0x3d4a91f2	0.04945559
165	0xbd7d05be	-0.061773054
166	0xbd43c74b	-0.047797482
167	0xbcfe14b0	-0.031015724
168	0xbd55a09e	-0.05215513
169	0xbd95bacf	-0.073110215
170	0x3cc380ec	0.023865186
171	0xbda9a4f2	-0.08283414
172	0x3d67a8c6	0.05655744
173	0x3d75b612	0.05998809
174	0xbd1a3473	-0.037647676
175	0xbc165c50	-0.009177282
176	0xbd93d20d	-0.072177984
177	0x3c032078	0.008003347
178	0xbd66023f	-0.056154486
179	0xbda0c47e	-0.07849978
180	0x3cd485da	0.025942732
181	0xbd9d9a81	-0.07695485
182	0x3d86473f	0.06556558
183	0xbd86ad3b	-0.0657601
184	0x3d59585a	0.053062774
185	0x3c19b268	0.009380914
186	0xbd9d3bd3	-0.07677426
187	0x3d8c1d83	0.068415664
188	0xbd49eb3f	-0.049296614
189	0xbc56a268	-0.013100244
190	0x3d3d09c6	0.0461519
191	0x3d8d3a11	0.06895841
192	0xbd947f3a	-0.07250829
193	0xbd8efd83	-0.06981947
194	0xbd3049e1	-0.043039206
195	0x3cee76c1	0.02910936
196	0xbdaa7c72	-0.08324517
197	0x3cb13d44	0.021635659
198	0xbdab7d8a	-0.08373554
199	0xbd97334b	-0.0738283
200	0xbd435530	-0.047688663
201	0x3c2ec270	0.010666475
202	0xbd511d28	-0.051053196
203	0xbd9c1780	-0.0762167
204	0xbd2ce290	-0.042208254
205	0xbda59810	-0.08085644
206	0xbd85fd84	-0.06542495
207	0xbcf26fca	-0.02959432
208	0x3d398cca	0.045300283
209	0x3d1157f2	0.03548426
210	0x3c064cf8	0.008197062
211	0xbd1a47ed	-0.03766625
212	0x3d5464c5	0.051853914
213	0x3cf857e4	0.030315347
214	0x3d861f17	0.06548899
215	0x3c5f81a0	0.013641745
216	0xbd16de25	-0.036832947
217	0x3ce3617c	0.027756445
218	0xbd49d930	-0.04927939
219	0xbc002af0	-0.007822737
220	0x3d2a6eda	0.041609623
221	0xbd7b3874	-0.061333135
222	0xbb1fe338	-0.0024396908
223	0x3da3fde9	0.08007414
224	0x3a009899	0.00049055513
225	0xbd6d5796	-0.057944857
226	0x3cda6fa5	0.026664564
227	0x3c884a1f	0.016636906
228	0x3d948c35	0.07253305
229	0x3cbb2950	0.022846848
230	0x3dac7b61	0.0842197
231	0xbc591651	-0.01324995
232	0xbda1f856	-0.079086944
233	0x3d4088a0	0.047005296
234	0x3d8c9c8f	0.06865799
235	0x3cf67d54	0.030089058
236	0xbd0851f5	-0.033281285
237	0x3d9ee68d	0.07758818
238	0xbd0b0217	-0.03393754
239	0x3c9f78cc	0.01946678
240	0xbcc4179c	-0.02393704
241	0xbd6161e1	-0.055024985
242	0xbd8306d6	-0.06397788
243	0xbcaf8c80	-0.0214293
244	0x3d826479	0.0636682
245	0x3be945c8	0.0071189143
246	0x3d1f7de6	0.038938425
247	0xbdae15f2	-0.085002795
248	0xbd6a083f	-0.05713677
249	0x3dabbbe7	0.08385449
250	0x3bb35b20	0.0054735094
251	0xbcfffdbc	-0.03124892
252	0xbd842744	-0.06452802
253	0x3b8fe0bd	0.0043908046
254	0xbcb393c8	-0.021921054
255	0xbd3a724f	-0.04551917

decoder.0.bias f4 [128]
0	0xbc07976e	-0.00827585
1	0x3d83596b	0.064135395
2	0x3d9e7679	0.077374406
3	0xbd5e3be1	-0.054256324
4	0xbd0c096a	-0.034188665
5	0x3a670c6b	0.0008813801
6	0x3dc99ab4	0.098439604
7	0xbbca4f45	-0.0061740004
8	0x3c108268	0.008820154
9	0xbd371493	-0.044697355
10	0xbd2592fc	-0.04042338
11	0x3afb7cd8	0.0019186987
12	0x3d174784	0.036933437
13	0xbc4593fc	-0.012059208
14	0x3cb087bd	0.0215491
15	0xbcd3d9bb	-0.025860658
16	0x3da8bf28	0.08239585
17	0x3d80d9f9	0.06291575
18	0x3d846ec6	0.06466441
19	0xbd62bec8	-0.055357724
20	0x3d2d557b	0.04231785
21	0x3cadc858	0.021213695
22	0x3cf1f0ba	0.029533733
23	0x3c987eb6	0.018615108
24	0x3df4e8c5	0.1195846
25	0x3d72230e	0.059115462
26	0x3a7970b4	0.000951539
27	0x3d4b8f10	0.049696982
28	0x3df3b165	0.1189907
29	0x3c9e6be2	0.019338552
30	0x3d233c4e	0.039852433
31	0x3dc753bf	0.0973277
32	0xbc8507e4	-0.016239114
33	0xbda227fa	-0.07917781
34	0x3bbacfa8	0.005701024
35	0x3dc55fe0	0.09637427
36	0xbc972ad1	-0.018453034
37	0xbda96a6e	-0.08272253
38	0x3dad6c28	0.08467895
39	0x3dba6bdf	0.09102606
40	0xbc777f23	-0.015105995
41	0xbd9f3012	-0.077728406
42	0xbcf5f644	-0.030024655
43	0xbc37354e	-0.011182142
44	0x3d8fc62e	0.07020222
45	0xbcea2e45	-0.028586516
46	0xbb67921c	-0.003533489
47	0xbc9432b4	-0.018090583
48	0x3bb00850	0.0053720847
49	0xbcde1a60	-0.027112186
50	0xbd0dc290	-0.034609377
51	0xbd9b4810	-0.07582104
52	0x3d898726	0.06715231
53	0x3d580439	0.052738402
54	0x3d43c6f7	0.04779717
55	0x3de4f48a	0.111794546
56	0xbdaf4c87	-0.08559518
57	0xbd909b39	-0.07060856
58	0x3d9c5498	0.076333225
59	0x3cba26c3	0.022723561
60	0x3d915678	0.07096571
61	0x3d8e8a4c	0.06959972
62	0x3d21d744	0.039511934
63	0x3ca704d3	0.020388043
64	0xbcbe7fc8	-0.02325429
65	0x3c44755d	0.011990872
66	0x3dd2ae5e	0.10287164
67	0xbd990550	-0.074717164
68	0xbd041889	-0.03224996
69	0xbd01626a	-0.031587996
70	0x3b782f74	0.003787008
71	0xbd5b65d0	-0.053563893
72	0xbb791af8	-0.003801046
73	0x3d0daa26	0.034586094
74	0xbd0b45ab	-0.034001987
75	0xbdafb1b4	-0.08578816
76	0x3db7da30	0.08977163
77	0x3dc815ef	0.097698085
78	0x3ce00b3a	0.027349103
79	0xbdb9baef	-0.09068858
80	0x3d98e3c8	0.07465321
81	0x3db44049	0.08801324
82	0xbd772d60	-0.060346007
83	0xbdc43d17	-0.095819645
84	0xbd19f45d	-0.03758656
85	0x3c70e2a1	0.01470247
86	0xbd905860	-0.07048106
87	0xbb5f47fa	-0.003407
88	0x3d96191e	0.073290095
89	0xbd5eb037	-0.05436727
90	0x3d7d57b2	0.06185121
91	0x3d93044c	0.07178554
92	0x3c8ee48a	0.01744296
93	0x3d7b3401	0.06132889
94	0xbdc76ca3	-0.09737518
95	0x3ba4707f	0.0050182934
96	0xbcc29d90	-0.023756772
97	0xbda73a26	-0.08165388
98	0xbb212166	-0.0024586557
99	0x3dbb0afc	0.091329545
100	0xbd747507	-0.05968192
101	0x3c1cd9bd	0.009573397
102	0x3d33efd6	0.043929897
103	0xbccba71a	-0.024859954
104	0x3cdd800d	0.027038598
105	0xbd8f12f7	-0.06986039
106	0x3d439a8f	0.04775482
107	0x3d5be0d8	0.053681225
108	0xbd397c22	-0.045284398
109	0x3cf6d68c	0.0301316
110	0x3da86f9f	0.08224415
111	0x3d11a7f6	0.03556057
112	0xbc967a37	-0.018368823
113	0xba7fa340	-0.0009751804
114	0x3d47586f	0.04866832
115	0x3d9b24e4	0.07575396
116	0xbd836625	-0.06415967
117	0xbb55acdb	-0.003260425
118	0x3dc21696	0.09476964
119	0x3c5e7d07	0.0135796135
120	0xbc96965c	-0.018382244
121	0xbdbb52f9	-0.09146685
122	0xbc96d0ac	-0.01841005
123	0xbd3c33eb	-0.04594795
124	0xbda2dc0c	-0.07952127
125	0x3d9f7581	0.07786084
126	0xbc91e9f8	-0.01781176
127	0xbc816507	-0.015795244

decoder.2.weight f4 [13, 128]
0	0x3cbfc630	0.023409933
1	0xbd94bb4d	-0.07262287
2	0xbca7efd4	-0.020500101
3	0x3dcbc8fd	0.09950445
4	0x3d788df2	0.060682245
5	0xbcbf5ccf	-0.023359684
6	0x3ce13864	0.02749271
7	0x3d0203d6	0.03174194
8	0xbd905c4d	-0.07048855
9	0x3de303ac	0.11084685
10	0x3dbb850d	0.09156237
11	0xbd992e18	-0.07479495
12	0x3d695cb8	0.05697319
13	0xbccb5576	-0.024821024
14	0xbe0e0aac	-0.13871258
15	0x3c9419d1	0.018078716
16	0x3d779552	0.060445137
17	0x3ca1a594	0.019732274
18	0x3d7f0eda	0.062270023
19	0xbc3b2b18	-0.011423849
20	0x3df60c0f	0.12014019
21	0x3d8f9f79	0.07012839
22	0x3d5d9f96	0.05410727
23	0x3d498587	0.049199607
24	0xbdb29f6a	-0.08721812
25	0x3d7c7113	0.061631273
26	0xbd6d7dc3	-0.057981264
27	0x3dc70cf4	0.097192675
28	0x3d97c585	0.07410721
29	0x3dd53b0a	0.104116514
30	0x3dc292d4	0.095006615
31	0x3defc012	0.117065564
32	0xbdb681bb	-0.08911463
33	0x3d09ced9	0.03364453
34	0xbdb0f09d	-0.08639643
35	0xbc363df9	-0.011123174
36	0x3dea028c	0.11426267
37	0x3b8dc314	0.0043262336
38	0x3de63980	0.11241436
39	0x3dd5f936	0.10447924
40	0x3d1c4450	0.038151085
41	0x3c61b045	0.013774936
42	0xbc86a26d	-0.016434873
43	0x3db9e49e	0.090768084
44	0x3d18ac19	0.0372735
45	0xbe433074	-0.19061452
46	0x3db21dd7	0.08697098
47	0xbd79a332	-0.06094665
48	0x3ccfd0f0	0.025368184
49	0xbd5d03dd	-0.053958762
50	0x3d86b076	0.06576626
51	0xbd2fec1b	-0.042949777
52	0x3c69ab27	0.014261997
53	0xbbb450a1	-0.005502776
54	0xbcdb91fb	-0.026803007
55	0x3db77df1	0.08959568
56	0xbc85cc49	-0.016332762
57	0xbd5436d9	-0.05181012
58	0xbd84dcd9	-0.06487436
59	0xbd150e72	-0.03639073
60	0x3ded89cc	0.11598548
61	0xbca59360	-0.020211875
62	0x3db8be76	0.090207025
63	0x3d6f13c3	0.058368456
64	0xbd46c250	-0.048525155
65	0x3c29c9be	0.0103630405
66	0xbd903d96	-0.070429966
67	0xbda546e1	-0.0807016
68	0x3d06e1b2	0.032930084
69	0xbd7a8d1b	-0.061169725
70	0xbc281a4d	-0.010260177
71	0x3d471a6a	0.048609175
72	0x3ddc6f7c	0.107634515
73	0x3d9d8d39	0.07692952
74	0xbde38e0a	-0.11111076
75	0x3d6101a6	0.054933213
76	0x3dd04ce8	0.10170919
77	0x3d4d407f	0.050110336
78	0xbc40cb04	-0.011767153
79	0x3b4c4edf	0.003117494
80	0x3d85dbe0	0.065360785
81	0xbd660b6d	-0.05616324
82	0x3d64614a	0.055756845
83	0x3d775cdc	0.060391292
84	0xbd167254	-0.036730126
85	0x3dc854a1	0.09781767
86	0x3d8666e0	0.065625906
87	0xbb60457d	-0.0034221106
88	0x3d0c3d64	0.034238234
89	0x3dc48672	0.09595956
90	0x3d5ed3a1	0.054401044
91	0x3d210f25	0.039321084
92	0x3d3e1fd4	0.046417072
93	0x3da4ef3c	0.08053443
94	0x3d03fe56	0.032224976
95	0xbda39d07	-0.07988935
96	0x3dd7ff65	0.105467595
97	0x3d904844	0.070450336
98	0x3df1556e	0.117838725
99	0x3dd1538e	0.10221015
100	0xbd90cbb5	-0.07070104
101	0xbd54b8a7	-0.05193391
102	0xbd258db9	-0.04041836
103	0x3de94f5f	0.11392092
104	0xbd5b0e45	-0.053480405
105	0x3df3d735	0.11906282
106	0x3d39b265	0.045336146
107	0xbced1d04	-0.0289445
108	0x3db24281	0.08704091
109	0x3de553e7	0.11197644
110	0x3da87020	0.08224511
111	0x3ce6d57a	0.028177965
112	0x3dc8dd5b	0.09807845
113	0x3d9cb981	0.076525696
114	0x3dce73a6	0.10080652
115	0x3c4eac68	0.012614347
116	0x3ae5c8aa	0.0017531116
117	0xbb8e4e8e	-0.0043428605
118	0x3de72763	0.11286809
119	0x3db39ba5	0.08769921
120	0x3bab023b	0.0052187718
121	0xbd2fb457	-0.042896595
122	0x3d62b321	0.055346612
123	0xbb35c8c2	-0.002773807
124	0x3d22b7b0	0.03972596
125	0x3d0fe4e0	0.03513038
126	0x3d430002	0.04760743
127	0x3d932888	0.07185465
128	0x3d036764	0.032081023
129	0xbc802770	-0.015643805
130	0x3da76603	0.08173754
131	0xbcac7757	-0.021053
132	0xbd5c3a93	-0.0537668
133	0xbbfc15cb	-0.0076930276
134	0x3d69c2ac	0.05707042
135	0x3dd723fa	0.10504909
136	0x3d1bf931	0.038079444
137	0x3d41b93f	0.047295805
138	0x3d99b18e	0.07504569
139	0x3daee9b9	0.08540673
140	0xbcdaae27	-0.02669437
141	0xbd768a80	-0.060190678
142	0x3dd975a8	0.10618144
143	0xbd11d2db	-0.035601478
144	0x3bbdf73c	0.005797295
145	0xbd9431c1	-0.07236052
146	0x3da885bc	0.08228633
147	0x3d9e0cb1	0.077172644
148	0x3d31e2d6	0.04342922
149	0xbb94128b	-0.004518812
150	0xbd86d852	-0.065842286
151	0xbd293da5	-0.041318554
152	0x3d9c3df3	0.076290034
153	0x3b800f30	0.0039080605
154	0x3d8a75e2	0.067607656
155	0x3d19ef35	0.03758164
156	0x3d8fb98c	0.07017812
157	0x3da4d906	0.080492064
158	0x3dbbae44	0.09164098
159	0xbd9d0e13	-0.076687
160	0x3e0b10d2	0.13580635
161	0xbce4aa37	-0.027913196
162	0xbcddf9e8	-0.027096704
163	0x3d9a42ea	0.07532294
164	0x3dbbe469	0.09174425
165	0xbcbd0ee8	-0.023078397
166	0xbd04370e	-0.032279067
167	0xbc3e46f3	-0.011613595
168	0xbda037dc	-0.07823154
169	0xbd6ce903	-0.057839405
170	0xbc8a3f00	-0.016875744
171	0x3dc33c6b	0.09533008
172	0x3b89d3be	0.00420615
173	0x3bde4882	0.006783546
174	0xbd09d2f8	-0.03364846
175	0xbd78f26f	-0.060778078
176	0xbd8882a4	-0.06665543
177	0x3e0cb24a	0.13739887
178	0x3d3e7a9a	0.04650364
179	0xbb819878	-0.0039549433
180	0xbd9ea903	-0.0774708
181	0x3de8b476	0.11362545
182	0x3df57276	0.11984722
183	0x3da9992a	0.08281167
184	0xbcdc39ab	-0.026882967
185	0x3ccc097a	0.024906863
186	0xbd82071d	-0.06349013
187	0xbd5034a1	-0.05083144
188	0x3da5660f	0.08076107
189	0xbb9056b0	-0.004404865
190	0xbcbb9744	-0.022899278
191	0x3d7e5520	0.0620929
192	0xbd3f6744	-0.04672934
193	0xbc90c036	-0.017669778
194	0x3e32a513	0.17445783
195	0xbd8b27d0	-0.06794703
196	0xbdaa885b	-0.08326789
197	0x3ba1ae90	0.0049341395
198	0x3d0d47b5	0.034492213
199	0x3c9ff867	0.019527627
200	0x3b2e512c	0.0026598675
201	0xbd62101f	-0.055191156
202	0xbd3c0718	-0.045905203
203	0xbd6f2bf6	-0.058391534
204	0xbd6cf15a	-0.05784736
205	0x3dcca01b	0.09991475
206	0xbc1782c9	-0.00924749
207	0x3ce47b17	0.027890725
208	0xbc62ed06	-0.013850456
209	0x3e203545	0.1564532
210	0xbda2df48	-0.07952744
211	0xbc3d1f71	-0.011543141
212	0x3d3e161d	0.046407808
213	0xbd914ece	-0.07095109
214	0xbd4cf02f	-0.050033744
215	0x3dacc520	0.08436036
216	0x3ce4636d	0.027879441
217	0xbcf3e8d9	-0.029774116
218	0x3bf97f72	0.0076140696
219	0xbd855d2a	-0.0651191
220	0x3cd524e6	0.026018571
221	0x3d99d693	0.0751163
222	0x3d0262a6	0.03183236
223	0x3c6bed16	0.014399787
224	0x3d11f301	0.035632137
225	0xbd957d28	-0.07299262
226	0x3ca0d116	0.01963095
227	0x3da6cec6	0.08144908
228	0x3ce6328b	0.028100273
229	0xba902381	-0.0010996909
230	0x3cd728d4	0.026264586
231	0xbd1262b8	-0.035738677
232	0x3e2e6c94	0.17033607
233	0x3d5652b6	0.052324973
234	0x3d8d73d9	0.06906862
235	0xbd0c2019	-0.0342103
236	0x3d394d3a	0.045239665
237	0xbd1413e6	-0.03615179
238	0x3dbe0e12	0.092800274
239	0xbd9eadc8	-0.0774799
240	0x3c164f69	0.009174206
241	0xbd92c9f4	-0.07167426
242	0xbd54fccf	-0.05199891
243	0xbccd8715	-0.025088826
244	0xbc55b3c9	-0.013043352
245	0x3a68b3f1	0.0008876911
246	0x3d8222ba	0.0635428
247	0x3d856bd4	0.06514707
248	0xbd1a1e59	-0.037626598
249	0xbd87870c	-0.06617555
250	0xbd8b514f	-0.06802618
251	0xbc92a0e5	-0.017898986
252	0xbd97c17f	-0.07409953
253	0x3d4f5c55	0.050625164
254	0x3cc18c84	0.023626573
255	0x3d3d3d86	0.04620125

decoder.2.bias f4 [13]
0	0xbc96af68	-0.018394187
1	0x3d95198a	0.07280262
2	0xbbe483d6	-0.006973724
3	0x3ad95e8d	0.0016583964
4	0x3d5e9100	0.0543375
5	0x3d0d5db8	0.034513205
6	0xbd63722f	-0.055528816
7	0xbd5755b4	-0.052571967
8	0xbd5ad21a	-0.053423025
9	0x3cf2620d	0.02958777
10	0xbcab6899	-0.0209239
11	0x3c451b4f	0.012030437
12	0x3d3c97e4	0.04604329
